…
2023-03-19 03:04:16.186078: I tensorflow/core/platform/cpu_feature_guard.cc:142] This TensorFlow binary is optimized with oneAPI Deep Neural Network Library (oneDNN)to use the following CPU instructions in performance-critical operations:  AVX AVX2
To enable them in other operations, rebuild TensorFlow with the appropriate compiler flags.
Model: "functional_1"
_________________________________________________________________
Layer (type)                 Output Shape              Param #   
=================================================================
input_1 (InputLayer)         [(None, 348, 16)]         0         
_________________________________________________________________
masking (Masking)            (None, 348, 16)           0         
_________________________________________________________________
gru (GRU)                    (None, 348, 16)           1632      
_________________________________________________________________
dropout (Dropout)            (None, 348, 16)           0         
_________________________________________________________________
gru_1 (GRU)                  (None, 32)                4800      
_________________________________________________________________
repeat_vector (RepeatVector) (None, 348, 32)           0         
_________________________________________________________________
gru_2 (GRU)                  (None, 348, 32)           6336      
_________________________________________________________________
dropout_1 (Dropout)          (None, 348, 32)           0         
_________________________________________________________________
gru_3 (GRU)                  (None, 348, 16)           2400      
_________________________________________________________________
time_distributed (TimeDistri (None, 348, 16)           272       
=================================================================
Total params: 15,440
Trainable params: 15,440
Non-trainable params: 0
_________________________________________________________________
None


Training Long Term Model...
Epoch 1/10
432/432 [==============================] - 1517s 4s/step - loss: 0.0179 - val_loss: 0.0015
Epoch 2/10
432/432 [==============================] - 1388s 3s/step - loss: 0.0161 - val_loss: 0.0016
…
